MakeModel(
  (mods): ModuleList(
    (0): Sequential(
      (0): ResBlock(
        (linear0): Linear(in_features=7, out_features=64, bias=True)
        (norm1): LayerNorm((64,), eps=1e-05, elementwise_affine=True)
        (non_lin1): LeakyReLU(negative_slope=0.01)
        (linear1): Linear(in_features=64, out_features=64, bias=True)
        (norm2): LayerNorm((64,), eps=1e-05, elementwise_affine=True)
        (non_lin2): LeakyReLU(negative_slope=0.01)
        (linear2): Linear(in_features=64, out_features=64, bias=True)
      )
    )
    (1): RnnBlock(
      (par_RNNs): ModuleList(
        (0): GRU(64, 256, num_layers=3, batch_first=True, bidirectional=True)
      )
      (init_hidden_states): ParameterList(  (0): Parameter containing: [torch.cuda.FloatTensor of size 1536 (GPU 1)])
    )
    (2): Sequential(
      (0): ResBlock(
        (norm1): BatchNorm1d(512, eps=1e-05, momentum=0.1, affine=True, track_running_stats=True)
        (non_lin1): LeakyReLU(negative_slope=0.01)
        (linear1): Linear(in_features=512, out_features=512, bias=True)
        (norm2): BatchNorm1d(512, eps=1e-05, momentum=0.1, affine=True, track_running_stats=True)
        (non_lin2): LeakyReLU(negative_slope=0.01)
        (linear2): Linear(in_features=512, out_features=512, bias=True)
      )
    )
    (3): Sequential(
      (0): Linear(in_features=512, out_features=3, bias=True)
    )
  )
)
